…
(bs, 16*1024)-&gt;(bs, 1) x = self.sigmoid(self.linear(x)) return x.squeeze() 2.调用summary()函数计算参数以及输出 1234567from test import discriminatorfrom torchsummary import summaryimport torchif __name__ == '__main__': device = torch.device('cuda' if torch.cuda.is_available() else 'cpu') m = discriminator(d=128, input_shape=[64, 64]).to(device) summary(m, input_size=(3, 64, 64)) 结果如下： 1234567891011121314151617181920212223242526272829---------------------------------------------------------------- Layer (type) Output Shape Param #================================================================ Conv2d-1 [-1, 128, 32, 32] 6,272 LeakyReLU-2 [-1, 128, 32, 32] 0 Conv2d-3 [-1, 256, 16, 16] 524,544 BatchNorm2d-4 [-1, 256, 16, 16] 512 LeakyReLU-5 [-1, 256, 16, 16] 0 Conv2d-6 [-1, 512, 8, 8] 2,097,664 BatchNorm2d-7 [-1, 512, 8, 8] 1,024 LeakyReLU-8 [-1, 512, 8, 8] 0 Conv2d-9 [-1, 1024, 4, 4] 8,389,632 BatchNorm2d-10 [-1, 1024, 4, 4] 2,048 LeakyReLU-11 [-1, 1024, 4, 4] 0 Linear-12 [-1, 1] 16,385 Sigmoid-13 [-1, 1] 0================================================================Total params: 11,038,081Trainable params: 11,038,081Non-trainable params: 0----------------------------------------------------------------Input size (MB): 0.05Forward/backward pass size (MB): 4.63Params size (MB): 42.11Estimated Total Size (MB): 46.78----------------------------------------------------------------Process finished wit
…
