…
"number">64</span>, <span class="number">64</span>))</span><br></pre></td></tr></tbody></table></figure>
<p>结果如下：</p>
<figure class="highlight markdown"><table><tbody><tr><td class="code"><pre><span class="line">----------------------------------------------------------------</span><br><span class="line"><span class="section">        Layer (type)               Output Shape         Param #</span></span><br><span class="line"><span class="section">================================================================</span></span><br><span class="line"><span class="code">            Conv2d-1          [-1, 128, 32, 32]           6,272</span></span><br><span class="line"><span class="code">         LeakyReLU-2          [-1, 128, 32, 32]               0</span></span><br><span class="line"><span class="code">            Conv2d-3          [-1, 256, 16, 16]         524,544</span></span><br><span class="line"><span class="code">       BatchNorm2d-4          [-1, 256, 16, 16]             512</span></span><br><span class="line"><span class="code">         LeakyReLU-5          [-1, 256, 16, 16]               0</span></span><br><span class="line"><span class="code">            Conv2d-6            [-1, 512, 8, 8]       2,097,664</span></span><br><span class="line"><span class="code">       BatchNorm2d-7            [-1, 512, 8, 8]           1,024</span></span><br><span class="line"><span class="code">         LeakyReLU-8            [-1, 512, 8, 8]               0</span></span><br><span class="line"><span class="code">            Conv2d-9           [-1, 1024, 4, 4]       8,389,632</span></span><br><span class="line"><span class="code">      BatchNorm2d-10           [-1, 1024, 4, 4]           2,048</span></span><br><span class="line"><span class="code">        LeakyReLU-11           [-1, 1024, 4, 4]               0</span></span><br><span class="line"><span class="code">           Linear-12                    [-1, 1]          16,385</span></span><br><span class="line"><span class="code">          Sigmoid-13                    [-1, 1]               0</span></span><br><span class="line"><span class="code">================================================================</span></span><br><span class="line"><span class="code">Total params: 11,038,081</span></span><br><span class="line"><span class="code">Trainable params: 11,038,081</span></span><br><span class="line"><span class="code">Non-trainable params: 0</span></span><br><span class="line">
…
